…
2026-01-15 20:43:23.466041: I tensorflow/stream_executor/cuda/cuda_diagnostics.cc:176] hostname: 23-N-ZSHAHID
2026-01-15 20:43:23.466429: I tensorflow/core/platform/cpu_feature_guard.cc:193] This TensorFlow binary is optimized with oneAPI Deep Neural Network Library (oneDNN) to use the following CPU instructions in performance-critical operations:  AVX AVX2
To enable them in other operations, rebuild TensorFlow with the appropriate compiler flags.
Model: "sequential"
_________________________________________________________________
 Layer (type)                Output Shape              Param #
=================================================================
 conv2d (Conv2D)             (None, 222, 222, 32)      896

 batch_normalization (BatchN  (None, 222, 222, 32)     128
 ormalization)

 max_pooling2d (MaxPooling2D  (None, 111, 111, 32)     0
 )

 conv2d_1 (Conv2D)           (None, 109, 109, 64)      18496

 batch_normalization_1 (Batc  (None, 109, 109, 64)     256
 hNormalization)

 max_pooling2d_1 (MaxPooling  (None, 54, 54, 64)       0
 2D)

 conv2d_2 (Conv2D)           (None, 52, 52, 128)       73856

 batch_normalization_2 (Batc  (None, 52, 52, 128)      512
 hNormalization)

 max_pooling2d_2 (MaxPooling  (None, 26, 26, 128)      0
 2D)

 flatten (Flatten)           (None, 86528)             0
 max_pooling2d_2 (MaxPooling  (None, 26, 26, 128)      0
 2D)

 flatten (Flatten)           (None, 86528)             0
 2D)

 flatten (Flatten)           (None, 86528)             0

 flatten (Flatten)           (None, 86528)             0
 flatten (Flatten)           (None, 86528)             0

 dense (Dense)               (None, 128)               11075712

 dropout (Dropout)           (None, 128)               0

 dense_1 (Dense)             (None, 1)                 129

=================================================================
Total params: 11,169,985
Trainable params: 11,169,537
Non-trainable params: 448
_________________________________________________________________
Epoch 1/20
301/301 [==============================] - 340s 1s/step - loss: 4.7839 - accuracy: 0.7893 - val_loss: 1.2796 - val_accuracy: 0.6350
Epoch 2/20
301/301 [==============================] - 398s 1s/step - loss: 1.2413 - accuracy: 0.8245 - val_loss: 0.4077 - val_accuracy: 0.8700
…
